trained_model.pth (torch, 2307 bytes, 4 tensors)

l1.weight f4 [8, 11]
00000000: f905 873f cc1c 683f 20a5 febe 1996 713f
00000010: dd5d 08bf b400 09bf 7e3a e6be b3d2 0dbd
00000020: 15f8 c23e 1d15 583f 4377 653f 9fd5 bdbe
00000030: 867c 433e 52c1 283f d6dc bdbe fccf 333f
00000040: fee2 543f 09d2 7b3f 9435 453f 4851 07bf
00000050: d41b 1e3f 9561 213e b260 a8be 7d37 723f
00000060: 70e5 d03b d9a4 a7be 12d1 a7be 4395 a7be
00000070: 17b5 a7be 81f5 aabe 52c9 05bf 57e2 5b3f
00000080: e91a 483e 2907 07bf 4ed4 fabe 7272 2c3e
00000090: 0336 13bf 4db5 6a3f 45a0 313f 460c 463f
000000a0: e0bf 223e aec1 81be 7c3a 13bf cad5 a4be
000000b0: 9c01 08bf f4fb 5cba ffcc 523f b4fd 07bf
000000c0: 8793 153f 1ca3 3d3f 338d 513f 4845 ab3e
000000d0: a889 3cbe c339 32be e5a2 b1be 1393 503f
000000e0: bead f5be 7901 5a3c bc6c 343f 0b23 e2be
000000f0: 50bb ffbe 0b3d d6be 865c a63e 3510 653f
00000100: 3c7f 30bf 75f3 8c3e 1bc3 13be 5d6a 8d3f
00000110: b24d ab3e 1dca 15be 0853 78be 3a0c 1bbe
00000120: 2e58 81be eddf d93d 4202 1bbf 944f 933f
00000130: 7ee3 eb3e e062 77be 0709 26be cc43 5a3f
00000140: 4a31 74be f30e 033f bb58 b43e 99c3 5bbe
00000150: 1ec6 5b3f 7e6c 34be 9e86 26be 92b0 81ba
1.0548698 0.9066894 -0.49735355 0.94369656 -0.53268224 -0.535167 -0.449665 -0.034624767
0.38079897 0.84407216 0.89635104 -0.37077042 0.1909047 0.65919983 -0.37082547 0.70239234
0.8315886 0.98367363 0.7703488 -0.528584 0.6176121 0.15759881 -0.32886273 0.9461592
0.0063750073 -0.32742956 -0.32776695 -0.32731065 -0.32755348 -0.3339043 -0.52260315 0.8589224
0.19541515 -0.527453 -0.489901 0.16840532 -0.5750429 0.91682893 0.69385177 0.7736248
0.15893507 -0.25343078 -0.57511115 -0.32194358 -0.53127456 -0.0008429878 0.8234405 -0.53121495
0.58428234 0.7407701 0.8185608 0.33451295 -0.18411887 -0.17404847 -0.3469459 0.8147442
-0.47984117 0.013306015 0.70478415 -0.4416736 -0.49947596 -0.41843447 0.32492465 0.89477855
-0.68944144 0.27529493 -0.14429896 1.1048084 0.33457714 -0.14627881 -0.24250424 -0.15141383
-0.25262588 0.106384136 -0.6055032 1.150866 0.46072 -0.24158812 -0.16214381 0.852597
-0.23846927 0.51194686 0.35223946 -0.21461333 0.8584918 -0.17619511 -0.1626229 -0.0009894541

l1.bias f4 [8]
00000000: eff7 083f 17ba bd3e f5b7 a73e 4235 133f
00000010: 67f7 073f 9a0c 313f 6531 143e da2d 263e
0.53503317 0.37056038 0.32757536 0.5750314 0.5311188 0.69159853 0.14471968 0.16228428

l2.weight f4 [3, 8]
00000000: 9d1d 203f c75c 8dbf 4f4b 96bf 06b4 16bf
00000010: a447 8bbf acb2 993f 1c9e 99bf 5652 37be
00000020: 76b2 92bf 8d3b d03e 93b2 72bf a8cb 5d3f
00000030: 8a75 3d3f 6fc3 ddbe 33f6 b5be 1779 383f
00000040: c35c 813e 552b 25be 9a0f ab3f 2a14 51bf
00000050: 8c00 91be 3aab 8ebf 136f 443f afb9 bcbe
0.62545186 -1.1043938 -1.1741732 -0.58868444 -1.0881238 1.2007651 -1.2001376 -0.17902502
-1.1460712 0.40670434 -0.9480373 0.8663888 0.74007475 -0.43313166 -0.35539398 0.7205977
0.25266084 -0.16129811 1.3364136 -0.8167139 -0.2832073 -1.1146004 0.76731986 -0.36860415

l2.bias f4 [3]
00000000: d2b3 183d 7fab 13bc 0cda efbe
0.037280865 -0.009013056 -0.46846044
